…
Training: 100%|██████████| 122/122 [00:03<00:00, 39.78it/s]
Epoch 18/20
	Train Loss 0.6757	 Learning Rate 0.0003706
	Val Loss 0.4375

Epoch 20/20
                                                  
Epoch 19/20
	Train Loss 0.6499	 Learning Rate 0.0003809
	Val Loss 0.4333
----------------------------------------------------------------------------------------------------
Layer                   Kernel Shape         Output Shape         # Params (K)      # Mult-Adds (M)
====================================================================================================
0_Linear                     [3, 25]             [32, 25]                 0.10                 0.00
1_ReLU                             -             [32, 25]                    -                    -
2_BatchNorm1d                   [25]             [32, 25]                 0.05                 0.00
3_Linear                    [25, 25]             [32, 25]                 0.65                 0.00
4_ReLU                             -             [32, 25]                    -                    -
5_BatchNorm1d                   [25]             [32, 25]                 0.05                 0.00
6_Linear                    [25, 25]             [32, 25]                 0.65                 0.00
7_ReLU                             -             [32, 25]                    -                    -
8_BatchNorm1d                   [25]             [32, 25]                 0.05                 0.00
9_Linear                    [25, 25]             [32, 25]                 0.65                 0.00
10_ReLU                            -             [32, 25]                    -                    -
11_BatchNorm1d                  [25]             [32, 25]                 0.05                 0.00
12_Linear                   [25, 25]             [32, 25]                 0.65                 0.00
13_ReLU                            -             [32, 25]                    -                    -
14_BatchNorm1d                  [25]             [32, 25]                 0.05                 0.00
15_Linear                   [25, 25]             [32, 25]                 0.65                 0.00
16_ReLU                            -             [32, 25]                    -                    -
17_BatchNorm1d                  [25]             [32, 25]                 0.05                 0.00
18_Linear                   [25, 25]             [32, 25]                 0.65                 0.00
19_ReLU                            -             [32, 25]                    -                    -
20_BatchNorm1d                  [25]             [32, 25]                 0.05                 0.00
21_Linear                   [25, 25]             [32, 25]                 0.65                 0.00
22_ReLU                            -             [32, 25]                    -                    -
23_BatchNorm1d                  [25]             [32, 25]                 0.05                 0.00
24_Linear                   [25, 25]             [32, 25]                 0.65                 0.00
25_ReLU                            -             [32, 25]                    -                    -
26_BatchNorm1d                  [25]             [32, 25]                 0.05                 0.00
27_Linear                   [25, 25]             [32, 25]                 0.65                 0.00
28_ReLU                            -             [32, 25]                    -                    -
29_BatchNorm1d                  [25]             [32, 25]                 0.05                 0.00
30_Linear                   [25, 25]             [32, 25]                 0.65                 0.00
31_ReLU                            -             [32, 25]                    -                    -
32_BatchNorm1d                  [25]             [32, 25]                 0.05                 0.00
33_Linear                   [25, 25]             [32, 25]                 0.65                 0.00
34_ReLU                            -             [32, 25]                    -                    -
35_BatchNorm1d                  [25]             [32, 25]                 0.05                 0.00
36_Linear                   [25, 25]             [32, 25]                 0.65                 0.00
37_ReLU                            -             [32, 25]                    -                    -
38_BatchNorm1d                  [25]             [32, 25]                 0.05                 0.00
39_Linear                   [25, 25]             [32, 25]                 0.65                 0.00
40_ReLU                            -             [32, 25]                    -                    -
41_BatchNorm1d                  [25]             [32, 25]                 0.05                 0.00
42_Linear                   [25, 25]             [32, 25]                 0.65                 0.00
43_ReLU                            -             [32, 25]                    -                    -
44_BatchNorm1d                  [25]             [32, 25]                 0.05                 0.00
45_Linear                   [25, 25]             [32, 25]                 0.65                 0.00
46_ReLU                            -             [32, 25]                    -                    -
47_BatchNorm1d                  [25]             [32, 25]                 0.05                 0.00
48_Linear                   [25, 25]             [32, 25]                 0.65                 0.00
49_ReLU                            -             [32, 25]                    -                    -
50_BatchNorm1d                  [25]             [32, 25]                 0.05                 0.00
51_Linear                   [25, 25]             [32, 25]                 0.65                 0.00
52_ReLU                            -             [32, 25]                    -                    -
53_BatchNorm1d                  [25]             [32, 25]                 0.05                 0.00
54_Linear                   [25, 25]             [32, 25]                 0.65                 0.00
55_ReLU                            -             [32, 25]                    -                    -
56_BatchNorm1d                  [25]             [32, 25]                 0.05                 0.00
57_Linear                   [25, 25]             [32, 25]                 0.65                 0.00
58_ReLU                            -             [32, 25]                    -                    -
59_BatchNorm1d                  [25]             [32, 25]                 0.05                 0.00
60_Linear                   [25, 25]             [32, 25]                 0.65                 0.00
61_ReLU                            -             [32, 25]                    -                    -
62_BatchNorm1d                  [25]             [32, 25]                 0.05                 0.00
63_Linear                   [25, 25]             [32, 25]                 0.65                 0.00
64_ReLU                            -             [32, 25]                    -                    -
65_BatchNorm1d                  [25]             [32, 25]                 0.05                 0.00
66_Linear                   [25, 25]             [32, 25]                 0.65                 0.00
67_ReLU                            -             [32, 25]                    -                    -
68_BatchNorm1d                  [25]             [32, 25]                 0.05                 0.00
69_Linear                   [25, 25]             [32, 25]                 0.65                 0.00
70_ReLU                            -             [32, 25]                    -                    -
71_BatchNorm1d                  [25]             [32, 25]                 0.05                 0.00
72_Linear                   [25, 25]             [32, 25]                 0.65                 0.00
73_ReLU                            -             [32, 25]                    -                    -
74_BatchNorm1d                  [25]             [32, 25]                 0.05                 0.00
75_Linear                   [25, 25]             [32, 25]                 0.65                 0.00
76_ReLU                            -             [32, 25]                    -                    -
77_BatchNorm1d                  [25]             [32, 25]                 0.05                 0.00
78_Linear                   [25, 25]             [32, 25]                 0.65                 0.00
79_ReLU                            -             [32, 25]                    -                    -
80_BatchNorm1d                  [25]             [32, 25]                 0.05                 0.00
81_Linear                   [25, 25]             [32, 25]                 0.65                 0.00
82_ReLU                            -             [32, 25]                    -                    -
83_BatchNorm1d                  [25]             [32, 25]                 0.05                 0.00
84_Linear                   [25, 25]             [32, 25]                 0.65                 0.00
85_ReLU                            -             [32, 25]                    -                    -
86_BatchNorm1d                  [25]             [32, 25]                 0.05                 0.00
87_Linear                   [25, 25]             [32, 25]                 0.65                 0.00
88_ReLU                            -             [32, 25]                    -                    -
89_BatchNorm1d                  [25]             [32, 25]                 0.05                 0.00
90_Linear                   [25, 25]             [32, 25]                 0.65                 0.00
91_ReLU                            -             [32, 25]                    -                    -
92_BatchNorm1d                  [25]             [32, 25]                 0.05                 0.00
93_Linear                   [25, 25]             [32, 25]                 0.65                 0.00
94_ReLU                            -             [32, 25]                    -                    -
95_BatchNorm1d                  [25]             [32, 25]                 0.05                 0.00
96_Linear                   [25, 25]             [32, 25]                 0.65                 0.00
97_ReLU                            -             [32, 25]                    -                    -
98_BatchNorm1d                  [25]             [32, 25]                 0.05                 0.00
99_Linear                   [25, 25]             [32, 25]                 0.65                 0.00
100_ReLU                           -             [32, 25]                    -                    -
101_BatchNorm1d                 [25]             [32, 25]                 0.05                 0.00
102_Linear                  [25, 25]             [32, 25]                 0.65                 0.00
103_ReLU                           -             [32, 25]                    -                    -
104_BatchNorm1d                 [25]             [32, 25]                 0.05                 0.00
105_Linear                  [25, 25]             [32, 25]                 0.65                 0.00
106_ReLU                           -             [32, 25]                    -                    -
107_BatchNorm1d                 [25]             [32, 25]                 0.05                 0.00
108_Linear                   [25, 1]              [32, 1]                 0.03                 0.00
====================================================================================================
# Params:    24.68K
# Mult-Adds: 0.02M
----------------------------------------------------------------------------------------------------
