…
Training: 100%|██████████| 122/122 [00:02<00:00, 55.46it/s]
Epoch 18/20
	Train Loss 0.2014	 Learning Rate 0.0003706
	Val Loss 0.2228

Epoch 20/20
                                                  
Epoch 19/20
	Train Loss 0.2027	 Learning Rate 0.0003809
	Val Loss 0.2214
32
----------------------------------------------------------------------------------------------------
Layer                   Kernel Shape         Output Shape         # Params (K)      # Mult-Adds (M)
====================================================================================================
0_Linear                     [3, 25]             [32, 25]                 0.10                 0.00
1_ReLU                             -             [32, 25]                    -                    -
2_Dropout                          -             [32, 25]                    -                    -
3_Linear                    [25, 25]             [32, 25]                 0.65                 0.00
4_ReLU                             -             [32, 25]                    -                    -
5_Dropout                          -             [32, 25]                    -                    -
6_Linear                    [25, 25]             [32, 25]                 0.65                 0.00
7_ReLU                             -             [32, 25]                    -                    -
8_Dropout                          -             [32, 25]                    -                    -
9_Linear                    [25, 25]             [32, 25]                 0.65                 0.00
10_ReLU                            -             [32, 25]                    -                    -
11_Dropout                         -             [32, 25]                    -                    -
12_Linear                   [25, 25]             [32, 25]                 0.65                 0.00
13_ReLU                            -             [32, 25]                    -                    -
14_Dropout                         -             [32, 25]                    -                    -
15_Linear                   [25, 25]             [32, 25]                 0.65                 0.00
16_ReLU                            -             [32, 25]                    -                    -
17_Dropout                         -             [32, 25]                    -                    -
18_Linear                   [25, 25]             [32, 25]                 0.65                 0.00
19_ReLU                            -             [32, 25]                    -                    -
20_Dropout                         -             [32, 25]                    -                    -
21_Linear                   [25, 25]             [32, 25]                 0.65                 0.00
22_ReLU                            -             [32, 25]                    -                    -
23_Dropout                         -             [32, 25]                    -                    -
24_Linear                   [25, 25]             [32, 25]                 0.65                 0.00
25_ReLU                            -             [32, 25]                    -                    -
26_Dropout                         -             [32, 25]                    -                    -
27_Linear                   [25, 25]             [32, 25]                 0.65                 0.00
28_ReLU                            -             [32, 25]                    -                    -
29_Dropout                         -             [32, 25]                    -                    -
30_Linear                   [25, 25]             [32, 25]                 0.65                 0.00
31_ReLU                            -             [32, 25]                    -                    -
32_Dropout                         -             [32, 25]                    -                    -
33_Linear                   [25, 25]             [32, 25]                 0.65                 0.00
34_ReLU                            -             [32, 25]                    -                    -
35_Dropout                         -             [32, 25]                    -                    -
36_Linear                   [25, 25]             [32, 25]                 0.65                 0.00
37_ReLU                            -             [32, 25]                    -                    -
38_Dropout                         -             [32, 25]                    -                    -
39_Linear                   [25, 25]             [32, 25]                 0.65                 0.00
40_ReLU                            -             [32, 25]                    -                    -
41_Dropout                         -             [32, 25]                    -                    -
42_Linear                   [25, 25]             [32, 25]                 0.65                 0.00
43_ReLU                            -             [32, 25]                    -                    -
44_Dropout                         -             [32, 25]                    -                    -
45_Linear                   [25, 25]             [32, 25]                 0.65                 0.00
46_ReLU                            -             [32, 25]                    -                    -
47_Dropout                         -             [32, 25]                    -                    -
48_Linear                   [25, 25]             [32, 25]                 0.65                 0.00
49_ReLU                            -             [32, 25]                    -                    -
50_Dropout                         -             [32, 25]                    -                    -
51_Linear                   [25, 25]             [32, 25]                 0.65                 0.00
52_ReLU                            -             [32, 25]                    -                    -
53_Dropout                         -             [32, 25]                    -                    -
54_Linear                   [25, 25]             [32, 25]                 0.65                 0.00
55_ReLU                            -             [32, 25]                    -                    -
56_Dropout                         -             [32, 25]                    -                    -
57_Linear                   [25, 25]             [32, 25]                 0.65                 0.00
58_ReLU                            -             [32, 25]                    -                    -
59_Dropout                         -             [32, 25]                    -                    -
60_Linear                   [25, 25]             [32, 25]                 0.65                 0.00
61_ReLU                            -             [32, 25]                    -                    -
62_Dropout                         -             [32, 25]                    -                    -
63_Linear                   [25, 25]             [32, 25]                 0.65                 0.00
64_ReLU                            -             [32, 25]                    -                    -
65_Dropout                         -             [32, 25]                    -                    -
66_Linear                   [25, 25]             [32, 25]                 0.65                 0.00
67_ReLU                            -             [32, 25]                    -                    -
68_Dropout                         -             [32, 25]                    -                    -
69_Linear                   [25, 25]             [32, 25]                 0.65                 0.00
70_ReLU                            -             [32, 25]                    -                    -
71_Dropout                         -             [32, 25]                    -                    -
72_Linear                   [25, 25]             [32, 25]                 0.65                 0.00
73_ReLU                            -             [32, 25]                    -                    -
74_Dropout                         -             [32, 25]                    -                    -
75_Linear                   [25, 25]             [32, 25]                 0.65                 0.00
76_ReLU                            -             [32, 25]                    -                    -
77_Dropout                         -             [32, 25]                    -                    -
78_Linear                   [25, 25]             [32, 25]                 0.65                 0.00
79_ReLU                            -             [32, 25]                    -                    -
80_Dropout                         -             [32, 25]                    -                    -
81_Linear                   [25, 25]             [32, 25]                 0.65                 0.00
82_ReLU                            -             [32, 25]                    -                    -
83_Dropout                         -             [32, 25]                    -                    -
84_Linear                   [25, 25]             [32, 25]                 0.65                 0.00
85_ReLU                            -             [32, 25]                    -                    -
86_Dropout                         -             [32, 25]                    -                    -
87_Linear                   [25, 25]             [32, 25]                 0.65                 0.00
88_ReLU                            -             [32, 25]                    -                    -
89_Dropout                         -             [32, 25]                    -                    -
90_Linear                   [25, 25]             [32, 25]                 0.65                 0.00
91_ReLU                            -             [32, 25]                    -                    -
92_Dropout                         -             [32, 25]                    -                    -
93_Linear                   [25, 25]             [32, 25]                 0.65                 0.00
94_ReLU                            -             [32, 25]                    -                    -
95_Dropout                         -             [32, 25]                    -                    -
96_Linear                   [25, 25]             [32, 25]                 0.65                 0.00
97_ReLU                            -             [32, 25]                    -                    -
98_Dropout                         -             [32, 25]                    -                    -
99_Linear                   [25, 25]             [32, 25]                 0.65                 0.00
100_ReLU                           -             [32, 25]                    -                    -
101_Dropout                        -             [32, 25]                    -                    -
102_Linear                  [25, 25]             [32, 25]                 0.65                 0.00
103_ReLU                           -             [32, 25]                    -                    -
104_Dropout                        -             [32, 25]                    -                    -
105_Linear                  [25, 25]             [32, 25]                 0.65                 0.00
106_ReLU                           -             [32, 25]                    -                    -
107_Dropout                        -             [32, 25]                    -                    -
108_Linear                   [25, 1]              [32, 1]                 0.03                 0.00
====================================================================================================
# Params:    22.88K
# Mult-Adds: 0.02M
----------------------------------------------------------------------------------------------------
